data.pth (torch, 4991 bytes, 6 tensors)

layer1.weight f4 [8, 54]
000000 57 af df bd ae d5 a3 3d 16 ec 54 bd 18 78 66 bd
       -0.10922115 0.079997405 -0.05198296 -0.056266874
000010 90 72 92 3c 50 f4 1f 3c 68 bb d9 bd 18 92 d8 bc
       0.017876893 0.0097628385 -0.10631448 -0.02643685
000020 68 3f 80 3c b8 df bc 3d 22 ce c3 bd a6 e8 95 3d
       0.015655234 0.092223585 -0.09560801 0.07319765
000030 85 b6 06 be 58 79 96 3c fa d0 b5 3d 9b 35 dc bd
       -0.13155563 0.018368408 0.0887775 -0.10752412
000040 60 18 b1 bb 56 75 24 bd ee c0 33 bd 14 ee 38 3d
       -0.005404517 -0.040150963 -0.043885164 0.045148924
000050 fc a2 f9 3d 1c 0f 69 bd d0 4d 12 3c 70 e4 f8 bd
       0.1218929 -0.056899175 0.008929685 -0.12152946
000060 f6 8f 27 bd 50 ab ef bd 40 cc 22 3b d4 d1 93 bc
       -0.040908776 -0.11702597 0.002484098 -0.01804439
000070 2a b7 bd bd 05 97 d4 bd b3 99 d3 3d 15 5d b9 bd
       -0.092634514 -0.10380367 0.1033205 -0.09050957
000080 a0 92 af 3d 80 c2 14 3d db 20 11 bd 84 20 fd 3d
       0.085728884 0.036318302 -0.035431724 0.123597175
000090 40 fc d5 3c 77 33 f9 bd 3f 26 96 bd 98 fc f3 3d
       0.026121259 -0.12168019 -0.073315136 0.11913413
0000a0 1d d1 ac 3d 4c d1 4c 3d 38 2f 69 bc 83 2a 3a 3d
       0.08438323 0.05000429 -0.014232449 0.0454507
0000b0 20 3a 3d 3d 2c f0 7d 3c 38 a5 96 3c 60 ea 06 be
       0.04619801 0.015499156 0.01838933 -0.13175344
0000c0 d2 ee e0 bd 22 c9 95 3d 98 e5 0d bd 40 fa 9d 3d
       -0.10983051 0.07313754 -0.034642786 0.07713747
0000d0 65 48 87 bd e6 a7 49 bd 7b bd 1a 3f b4 e2 1d 3d
       -0.06605605 -0.049232386 0.60445374 0.03854628
0000e0 d8 c0 3d 3f ff e8 f7 3e 1c 77 02 3f 9c 24 50 bf
       0.7412238 0.4841995 0.50962996 -0.8130586
0000f0 0b e6 09 3f 5b 42 2a 3f 51 14 9e 3e 5f f8 ef 3e
       0.5386664 0.665075 0.30874875 0.4686918
000100 d8 ff c3 3e b6 ad 8e be ce 7e 93 bd 84 e3 b9 be
       0.3828113 -0.27866906 -0.072019204 -0.36306393
000110 77 93 0d be f8 0e bd 3e bd 5e fe 3e a3 32 50 bf
       -0.13825785 0.36925483 0.49681655 -0.81327266
000120 a8 c0 94 be 40 59 59 3f a8 78 f3 3e 08 c1 38 3f
       -0.29053235 0.8490181 0.4755299 0.7216954
000130 d6 ab 56 3f a2 25 05 3e 01 e8 df 3e ab 06 16 3f
       0.8385595 0.13002637 0.43731692 0.58603925
000140 f0 d5 d3 be 27 32 19 bf a5 f8 87 be 3c d1 1f bf
       -0.4137416 -0.5984215 -0.26556888 -0.6242864
000150 f4 7e 2d bf bd 6d 3a be 89 91 a3 3e ec 80 2c 3f
       -0.6777184 -0.18205924 0.31946972 0.6738422
000160 b1 c8 20 be e2 82 7f 3e fe 01 a9 be 41 af c3 3e
       -0.15701558 0.24952272 -0.33009332 0.38219646
000170 65 f9 b7 3e dc 0d e9 3e 42 04 13 bf 21 6f 04 bf
       0.3593246 0.45518386 -0.5742837 -0.5173207
000180 59 41 80 be 2c 20 40 be 4f 9e 98 bd bf 44 a9 be
       -0.25049856 -0.18762273 -0.0745207 -0.33060262
000190 b3 32 81 3f 82 fa e2 3e e1 65 84 3e 60 80 0c bf
       1.0093597 0.44331747 0.25858977 -0.54883385
0001a0 fd d2 b5 3e a8 e5 b1 be b2 1b bc 3e 8b d2 e2 3e
       0.35512534 -0.34745526 0.3673988 0.44301257
0001b0 7d 42 9c 3d 9c 80 51 3f 0c e6 ce be 3a 0b e4 be
       0.07629869 0.8183687 -0.40409887 -0.44539815
0001c0 e8 a5 fa b9 45 fc 3d 3f 85 ef 40 3d 0f 4d 65 be
       -0.00047807326 0.7421306 0.047103424 -0.22392677
0001d0 be e2 8c 3e 8b b6 a4 be 95 e2 e1 be ea 62 9c 3e
       0.2751674 -0.3217052 -0.4411818 0.30544215
0001e0 18 d1 78 3f 21 1e 6e bd 3e 36 31 3f 12 9f 9b 3e
       0.9719405 -0.058134202 0.6922339 0.303948
0001f0 40 f2 9f be 4c b4 66 3f 86 15 37 3f 30 03 4b bf
       -0.3123951 0.9011886 0.7151722 -0.7930174
000200 1a 9a 88 3c 79 ff 4a bf b8 ef 49 bf 92 12 67 bf
       0.016675044 -0.7929607 -0.78881407 -0.9026271
000210 52 a2 a2 3e 19 b3 20 bf 41 2e 5a 3f 83 b5 60 3f
       0.31764466 -0.6277328 0.8522683 0.87776965
000220 fb 07 1e 3f f6 58 06 3f ba e0 df 3e 67 85 82 3d
       0.6173093 0.52479494 0.4372614 0.06373101
000230 10 1e 27 be 40 97 2f be 87 a0 67 3f fc 0c 9f 3e
       -0.16320062 -0.17147541 0.9047932 0.31064594
000240 ca e1 08 3f f5 03 8a 3e 1b 92 4d bc d8 85 aa bd
       0.53469527 0.26956144 -0.012547041 -0.0832631
000250 42 b7 cb 3e d6 00 43 3f 68 b5 5a 3d 13 7d 5e 3f
       0.39788252 0.7617315 0.05339566 0.869096
000260 1e a7 c1 be e5 c5 95 3f d3 f3 4d be 74 e4 1f 3e
       -0.37822813 1.1701018 -0.20112543 0.15614492
000270 63 47 cf 3e 08 bf 49 3f 84 8e ad 3e ca 4c 0a 3f
       0.4048415 0.78807116 0.33897793 0.5402342
000280 74 d7 15 be 68 8c 0f 3f 9f f5 82 3c 78 f5 ff 3e
       -0.1463297 0.5607362 0.015986262 0.49991965
000290 df 95 26 3f c3 53 31 3f 1d db 62 3f 26 5b 2f bf
       0.65072435 0.69268435 0.8861559 -0.68498456
0002a0 82 65 fa bd 10 3b 1b 3f b3 7b 26 3f 9d 6d e8 3e
       -0.12226392 0.60637 0.650325 0.45396128
0002b0 c5 fa 79 3f 71 dc d5 be 42 91 2f 3e 38 52 0a bf
       0.9764827 -0.41769746 0.17145255 -0.54031706
0002c0 7b 15 15 3f 04 0a d6 3b a9 30 78 3f e4 ea 2e bf
       0.582359 0.0065319557 0.9694925 -0.68327165
0002d0 dd b0 a6 be b7 ed 82 3f 1b 93 8f 3c 19 db 89 3f
       -0.3255681 1.0228795 0.0175262 1.0769988
0002e0 15 b1 54 3f 00 c6 0e 3f cb af 98 be 78 47 54 3f
       0.83082706 0.55770874 -0.2982162 0.8292155
0002f0 b2 6e 12 bf 3b 45 17 3f 06 48 ae be 7b e0 18 3f
       -0.5720016 0.5909001 -0.34039325 0.5971753
000300 70 65 bc be d8 78 fc be ac 61 65 3d ed a7 37 3f
       -0.3679614 -0.49310946 0.05600135 0.7174061
000310 76 76 f5 3e 20 6e cf bd c0 a3 b4 be e1 ea 1f 3f
       0.4794194 -0.101284266 -0.3528118 0.6246777
000320 7f 42 55 bd 6e 53 b8 bd bb ea 12 bf 06 d8 0b bf
       -0.05206537 -0.09000288 -0.5738942 -0.546265
000330 a5 05 d6 be b5 9c ed 3e 4c ab 37 3e 43 f9 2f 3f
       -0.4180118 0.4640862 0.17936438 0.6873972
000340 ad 1f 73 be f6 06 4d 3d 2d db 6d 3e 54 37 11 bf
       -0.23742552 0.050055467 0.2322814 -0.5672505
000350 4a d1 9a bd 26 4e 5d be 59 90 20 be 0c 3d 69 3e
       -0.0755945 -0.21611843 -0.15680064 0.22777194
000360 e0 91 ab 3c a0 d3 b8 3b 66 89 87 3d a0 fc 9a 3b
       0.020943582 0.005640462 0.066180035 0.0047298223
000370 a1 71 01 be b6 be d0 3d fc 86 82 3d 94 93 b2 3d
       -0.12641002 0.10192625 0.063734025 0.087195545
000380 10 14 f4 3c 2a 11 69 bd ea c4 98 bd 5c 00 be bd
       0.029794723 -0.056901135 -0.074594334 -0.09277412
000390 e2 96 db bd 8c ce 73 3d a0 a6 2f bd 58 2d b3 3d
       -0.10722138 0.05952315 -0.042883515 0.08748883
0003a0 80 ee 75 3b 70 38 18 3d 94 4e fe 3d 16 34 a7 3d
       0.003752619 0.037163198 0.12417331 0.081642315
0003b0 86 dc 0c bd c0 8f 4c 3d a0 6a 94 3d 5e 3d 88 bd
       -0.034389995 0.04994178 0.072468996 -0.0665233
0003c0 28 d2 d8 3d 49 f0 9c bd 52 ef b3 bd a8 13 d4 bd
       0.10586959 -0.07663018 -0.08785881 -0.10355312
0003d0 20 32 ad 3d 08 ef d1 3c 20 3b d7 3b 56 b8 cb bd
       0.08456826 0.025626674 0.0065683275 -0.09947269
0003e0 18 15 06 3e 9a dc 23 bd 36 0c b7 bd 90 3b 9e bd
       0.13093984 -0.040005304 -0.08937876 -0.077262044
0003f0 d6 dd 51 bd 38 8f 2d 3d 04 7e 87 3d c5 e8 db bd
       -0.05123695 0.042372912 0.066158324 -0.10737757

layer1.bias f4 [8]
000000 a1 a1 22 be d5 20 50 3f 17 0b 4b 3f bd cb 36 3f
       -0.15881969 0.813001 0.79313797 0.7140463
000010 b2 2e dd bd 60 b8 85 3f cf 78 68 3f df a1 74 3f
       -0.10799922 1.0446892 0.9080934 0.95559496

layer2.weight f4 [8, 8]
000000 34 0f 3b be 15 7f ce 3d 36 6a 74 3f 92 d0 36 3f
       -0.18267518 0.10082833 0.95474565 0.71412003
000010 32 4c 34 be 4f e5 89 3f cb 4a a2 bf 97 8f c6 bf
       -0.17607191 1.0773104 -1.2679075 -1.551257
000020 f5 53 86 3e 81 9f 27 be 90 23 e7 3d 50 d3 c4 3d
       0.2623593 -0.1636944 0.1128608 0.09610617
000030 a0 a2 46 3d 74 ff 01 be 3b 36 1f be 98 ea be be
       0.048494935 -0.12695104 -0.15548031 -0.37288356
000040 10 d9 71 be b2 d5 9a bf 07 ff da 3f dc 2f 6d bf
       -0.23617959 -1.2096465 1.7109078 -0.9265115
000050 80 d3 79 3d 34 ab 20 3f b8 77 70 3f b2 fd cd 3e
       0.060992718 0.62761235 0.93932676 0.40232617
000060 93 09 47 be 5d 80 11 be 40 06 9c be d4 c1 36 be
       -0.19437246 -0.14209123 -0.30473518 -0.17847377
000070 f7 93 13 be 28 fb 99 be 00 75 b3 3a 5a da 88 be
       -0.14411913 -0.3007443 0.0013691485 -0.2672909
000080 95 df 0c 3e 97 0e b4 3f 4b b6 5f bf c8 45 c9 3f
       0.13757165 1.4066952 -0.8738753 1.572442
000090 18 b1 c4 bd 49 a2 98 3f 8a 3d bd 3f f2 05 c1 3f
       -0.096040905 1.1924525 1.4784405 1.5079939
0000a0 c6 9a 39 3e cf 85 39 be 63 23 4a be f7 44 82 3e
       0.18125448 -0.1811745 -0.19740061 0.2544324
0000b0 f4 12 80 bd a6 97 dc bd 46 78 74 be 56 0a 9f be
       -0.06253615 -0.10771112 -0.23874006 -0.31062573
0000c0 c4 57 8e be 2b a2 d9 3e b8 9d f4 3d a1 ca 84 bf
       -0.27801335 0.42506537 0.11944145 -1.0374337
0000d0 90 ce c6 3d 4c 63 78 3f 33 37 07 bb 1a 92 d6 be
       0.097073674 0.97026515 -0.0020632267 -0.41908342
0000e0 18 b7 c6 bd d8 57 9f 3d 6c 98 38 be ab 9f b2 3f
       -0.09702891 0.07780427 -0.18026894 1.3954977
0000f0 98 72 97 3d 04 63 51 3f d7 d6 14 bf 7d f2 47 be
       0.07394904 0.8179171 -0.5814032 -0.19526096

layer2.bias f4 [8]
000000 0f 2d 8f 3c 82 db a7 be dd e3 44 3f 6d 20 16 be
       0.01747754 -0.3278466 0.7691019 -0.14660807
000010 54 99 8f 3e 0a 87 fc bd 32 18 bf be bb b9 69 3e
       0.28046668 -0.12330444 -0.37323147 0.22824757

layer3.weight f4 [7, 8]
000000 32 1e c5 bf 65 88 8d be bc c5 e1 bf d9 6b b2 3e
       -1.539984 -0.27643123 -1.7638469 0.34847906
000010 ff 0d 0c 3f 8e 66 1d 3e 8c c1 64 bf 61 b2 27 3f
       0.54708856 0.15371153 -0.8935783 0.6550656
000020 32 48 a2 bf 34 08 a2 bd 5f de 8a 3f 1c d0 f4 3d
       -1.2678282 -0.07911721 1.0849112 0.11953756
000030 54 f5 a5 be 61 7a 84 3e c7 76 ff bf b7 b5 c9 bf
       -0.32413733 0.25874618 -1.9958123 -1.575858
000040 e5 df 7e bf 3a 64 98 bd 1d f1 1a bf e2 20 13 3e
       -0.99560386 -0.07440992 -0.6052416 0.14368013
000050 0f bd 43 3f 80 fa 73 bb 4e b4 a9 bf 2b 5d 00 c0
       0.76460356 -0.0037228167 -1.325815 -2.0056865
000060 01 ca 17 3f 30 f6 6d be d0 f4 91 3e 40 78 bb 3d
       0.5929261 -0.23238444 0.2850709 0.09153795
000070 61 68 bf bf 02 19 23 3e 1e cc 8e 3f 02 cf 58 bf
       -1.4953729 0.15927508 1.1156042 -0.8469087
000080 ce 33 bd 3e a1 07 83 be 04 25 b1 bf 23 b9 97 3e
       0.36953586 -0.25591758 -1.3839421 0.29633436
000090 e2 46 1f 3d b0 2a a8 bc 9e db cb 3e 33 75 a3 3e
       0.03888596 -0.020528167 0.39815992 0.31925353
0000a0 37 c1 84 bf 64 39 4f 3c 9b 60 20 3d 60 1c d2 bd
       -1.0371464 0.01264796 0.03915463 -0.10259318
0000b0 42 f3 a5 bc 98 06 7c 3d 52 fc 83 3f 20 67 83 bf
       -0.020257596 0.061529726 1.0311377 -1.0265846
0000c0 7d 4f c6 3e 08 a4 9c be 96 d5 65 bc 22 91 af be
       0.3873252 -0.30593896 -0.014027974 -0.34290415
0000d0 8a 33 33 bf 3e 21 05 be 81 09 9e bf da b5 fe 3e
       -0.7000052 -0.13000962 -1.234665 0.49748117

layer3.bias f4 [7]
000000 76 af 5b 3e f8 49 60 3f 73 d5 ed bc 5a 2d c9 bc
       0.21453652 0.8761287 -0.029032445 -0.024557758
000010 7c e1 42 3e ce 3e 1f bf fe a3 80 bd
       0.19031328 -0.6220521 -0.06281279
